best_dna_classifier.pth (torch, 824960 bytes, 5 tensors)

feature_encoder.0.weight f4 [32, 4]
000000 db 0f d5 3f b5 a7 bb 3f 98 63 03 3f 7b 2f 56 3e
       1.6645464 1.4660555 0.51323843 0.2091655
000010 4f 7d 2d bf 7b 5b 5a bf 44 8d 0f 3e 50 de 79 3d
       -0.6776933 -0.8529584 0.14018732 0.06100303
000020 26 8a c3 3f 28 5a 92 3f 81 97 f4 3e 8e 51 2d 3f
       1.5276535 1.1433764 0.47771838 0.6770257
000030 85 db ee 3f b2 e5 a2 3f 84 c4 eb 3d 6f 03 e3 3e
       1.8660742 1.2726347 0.11512092 0.44338557
000040 aa 05 99 3f 15 cc 98 3f e3 43 85 bd 5b bd 36 3d
       1.1954854 1.1937281 -0.06507089 0.044614177
000050 c8 e9 c2 3e 68 49 db bd 9c 3a f1 be 20 3c 1a bd
       0.38068986 -0.107073605 -0.47115028 -0.037654996
000060 fa a0 34 be 14 e1 6b be 4c 88 e6 be a6 2a f8 3e
       -0.17639533 -0.23035079 -0.4502586 0.48470038
000070 33 a3 f4 3f a3 ef 8c 3f b2 d5 a0 3e c6 37 2e 3f
       1.9112304 1.1010631 0.31413037 0.68053854
000080 41 50 ef 3f c8 94 bc 3f f4 9e 92 3e 01 f8 85 3d
       1.8696367 1.4732904 0.28636897 0.065414436
000090 f9 2a 8f 3f 2f e6 8d 3f e6 81 10 3f 4e 67 21 3f
       1.1184989 1.1085871 0.5644821 0.63048255
0000a0 21 2e d9 3f 97 12 ab 3f c0 33 17 3f 5a 80 56 3e
       1.6967202 1.3365048 0.5906334 0.209474
0000b0 40 d1 d5 bd 1c 4b be be 86 cd d9 be 00 4b 55 bd
       -0.10440302 -0.3716668 -0.42539614 -0.05207348
0000c0 43 36 11 bf e5 fc 6a bf 12 8a 24 3f 12 85 1d 3f
       -0.5672342 -0.91792136 0.6427318 0.61531174
0000d0 59 75 bf bf af b9 fd be b7 cc 3a 3d 2f 69 af 3e
       -1.4957687 -0.49555728 0.045605388 0.34259936
0000e0 89 75 8d 3f f8 1c 94 3f 46 2b af 3e 97 41 8e 3e
       1.1051494 1.157134 0.34212703 0.27784416
0000f0 14 5c 47 bf ad ef 73 bf 7c 0a 24 3f 80 8c 6d 3e
       -0.77874875 -0.9528759 0.640785 0.23198128
000100 24 18 a2 3f 15 2b bc 3f 06 f6 e5 3e 5e 62 04 3f
       1.2663617 1.4700648 0.44914263 0.51712596
000110 cc 5c f1 3f ab 29 83 3f bf f6 2f 3e 17 7d c8 3e
       1.8856444 1.0247091 0.1718397 0.39157936
000120 c1 4f 4c bf 3c 26 6b bf c1 48 e5 3e f6 b1 32 3e
       -0.79809195 -0.91855216 0.4478207 0.17450699
000130 e2 24 ef 3f d2 fd 98 3f 31 77 e8 3e 42 c7 94 3e
       1.8683131 1.195246 0.45403436 0.29058272
000140 6e e8 a7 3f 40 bd ac 3f fb 0d 3b 3f 1a 86 fd bc
       1.3117807 1.3495255 0.7306821 -0.030947734
000150 3c 22 dd 3f 19 c2 67 3f 05 dc 8f 3e 06 06 83 3e
       1.7276073 0.90530545 0.2809755 0.25590533
000160 86 b6 8f be 24 e0 85 be ec 8b 98 3e 28 51 32 3e
       -0.28068942 -0.26147568 0.29794252 0.17413771
000170 53 14 a0 3f 77 47 b5 3f 49 f2 05 3f 1d c5 0e 3f
       1.2506202 1.4162434 0.5232282 0.5576952
000180 e0 b0 fd bc 1e 50 8c be 82 ae c9 be 46 a7 82 3e
       -0.03096813 -0.27404875 -0.3939095 0.25518245
000190 21 ca 98 bf 98 45 5f bf c1 18 ee 3e b8 82 db 3d
       -1.1936685 -0.87215567 0.4650326 0.10718292
0001a0 ce 7b a1 be 78 04 bf be ec f8 86 be 48 41 13 be
       -0.31539768 -0.37308097 -0.26361787 -0.14380372
0001b0 2c a8 dc 3f d7 c6 9e 3f 27 7e 81 3e 64 ac d9 bc
       1.7238822 1.2404431 0.2529156 -0.02657146
0001c0 af bc 8f bf bd 28 15 bf 64 e4 8f 3e 29 70 21 3d
       -1.1229457 -0.58265287 0.28103936 0.039413605
0001d0 65 b0 ae bf 3d ea d5 be e0 1e 24 3f 3e 1e 80 3e
       -1.3647581 -0.41780272 0.6410961 0.25023073
0001e0 7a 60 98 be e0 7e d7 3d 92 97 cb be 20 de e2 3c
       -0.29761106 0.10522246 -0.39764076 0.027693808
0001f0 10 7f 2c bf e7 06 36 bf 36 9c 70 3e 0b a8 1a 3f
       -0.6738138 -0.7110428 0.2349709 0.60412663

feature_encoder.0.bias f4 [32]
000000 6b 98 91 bd e6 ab 83 3f 6e 54 86 be fb 26 c3 3d
       -0.071091495 1.0286834 -0.2623629 0.09528919
000010 5f 9f c5 3e 94 6f 6f be c8 49 a4 be fd ec 9f bd
       0.38598153 -0.23382407 -0.3208754 -0.07808874
000020 71 22 85 3d 48 3f 96 be 01 98 9e bd 2e 10 fd be
       0.0650071 -0.29345155 -0.07743836 -0.49426407
000030 79 39 82 3e 92 fb 67 3f 6a 23 eb 3e d1 6e 2e 3f
       0.25434473 0.9061824 0.45925456 0.6813784
000040 46 1a 8b bd fb 8f ca 3d d0 61 5a 3f 70 2c 39 3d
       -0.06792121 0.09890743 0.853055 0.045208395
000050 b3 21 14 be 5a ef 95 3e d0 88 d4 be 0f 49 0a be
       -0.1446598 0.29284173 -0.4151063 -0.13504432
000060 e4 62 ce be b9 34 89 3f 8e 9a a6 be 7a 55 ac 3e
       -0.40309823 1.0719215 -0.3253979 0.33658963
000070 53 bd 66 3f 21 48 e2 3e 98 0c 41 be 75 03 88 3e
       0.90132636 0.44195655 -0.1885246 0.26565138

classifier.0.weight f4 [256, 800]
000000 cc c5 b4 3c f2 bb 88 bb ef 40 49 3b 60 f5 07 bd
       0.022066973 -0.0041727955 0.003070887 -0.033192992
000010 20 ec 54 bc 62 04 f0 bc c5 d5 97 3b 8e 67 b9 bc
       -0.01299575 -0.029298965 0.0046336376 -0.022632387
000020 f2 1d 07 bd a9 4a 84 bc c2 4e 49 3c 84 9e ba 3c
       -0.032987542 -0.016148882 0.012286844 0.022780664
000030 bb 30 ad 39 64 e7 ce 3c 58 a9 f6 3c 1e c0 f1 3c
       0.00033033438 0.02525682 0.030110046 0.029510554
000040 a3 d4 20 3c 22 23 af bb 3b 05 1c 3c 9a ad ba 3b
       0.009816322 -0.0053447643 0.009522731 0.0056969645
000050 4d 64 98 bc 99 5f 8f bc b2 57 86 3c 8f 04 a7 bc
       -0.018602515 -0.01750164 0.016399238 -0.020387916
000060 40 1e 0c bd ca d0 82 3c d5 e9 8c bc e4 bf 02 bc
       -0.034208536 0.015968699 -0.017201344 -0.007980321
000070 af 09 f2 3b d2 4f 2f 3c 94 f4 f9 bc 58 4f bb bc
       0.0073864083 0.010700183 -0.030512132 -0.022864982
000080 6b 37 86 bb 0a a5 cb bc 82 7e 8f bc 72 bb f8 3c
       -0.004095962 -0.02485897 -0.017516378 0.030362818
000090 9d f7 6c bb 4e ab e6 bb fe 96 ce 3c 12 5e ee bc
       -0.0036158331 -0.007039464 0.025218483 -0.02909759
0000a0 fc 5a 92 3c d5 ed 72 3b d4 50 92 bc ae d1 75 3a
       0.01786565 0.0037068028 -0.017860807 0.0009377253
0000b0 7f 15 ed 3c 87 b0 a4 3c 11 f2 01 bd 3a 34 0e 3d
       0.028940914 0.020103706 -0.031724993 0.034717776
0000c0 9b 06 ec 3c ef a7 9b 3c 2b a4 c8 bb 17 56 77 3b
       0.028811743 0.019000975 -0.006123086 0.0037740523
0000d0 74 fb 05 3c f2 cd b7 3c a5 66 50 bc 4b 86 7d bb
       0.008177627 0.02243707 -0.012719785 -0.0038684781
0000e0 26 7f 95 bc 45 e9 d6 bc af e7 fa bc a4 fa d9 bc
       -0.018249106 -0.026234278 -0.030628053 -0.026608773
0000f0 3d d9 70 bb d3 5b c6 3c 8d a0 d5 3c 47 64 0e bb
       -0.0036750578 0.024213707 0.026077533 -0.002172725
000100 4c 29 f7 bb 04 dc 03 3d e3 fc 5b 3b 6f 25 d7 bb
       -0.007542765 0.032192245 0.003356748 -0.0065657417
000110 aa 89 8f 3c 45 2a a1 bc 22 63 de bc 9f e1 f6 bc
       0.017521698 -0.019673476 -0.02714688 -0.030136881
000120 24 b4 85 bc 0c f9 f3 bc f3 a0 03 3d ae a0 e3 3c
       -0.01632125 -0.02978184 0.032135915 0.027786579
000130 9f 88 fb bc a3 75 e2 bc f8 ae 9e bb 3b e8 83 3c
       -0.030704794 -0.027643984 -0.0048426352 0.016101947
000140 11 9e d6 3c ee 53 7d bc 50 f2 b3 3a 43 5a 84 bb
       0.026198419 -0.015461905 0.0013728831 -0.0040390803
000150 d6 88 22 3c a6 4f 01 3c ea ac 83 bb f8 55 b3 bb
       0.00992032 0.007892525 -0.0040184157 -0.0054728948
000160 7e 65 9d bc e0 ad 9d 3c 9d 52 3c bb e2 4c 75 3c
       -0.019213434 0.01924795 -0.0028735765 0.014971944
000170 ab cf d7 3a fd 15 04 bb 7d a7 0a bb 01 10 c5 bc
       0.0016465088 -0.0020154708 -0.002115696 -0.024055483
000180 85 cc 0f 3d 9d cd 7e bb 63 f4 a0 3c 4d 7d 96 3a
       0.035107154 -0.003887988 0.019647783 0.0011481434
000190 59 b5 55 bc ba 1a fa bc ac 61 ec bc 0e 26 a0 3a
       -0.013043725 -0.030530322 -0.028855167 0.0012218372
0001a0 4e b4 0f bd 81 a4 fc 3c bd be 90 bc 61 2b 9b bc
       -0.03508406 0.03084016 -0.017669076 -0.018941583
0001b0 a7 2d c2 3c 05 e9 97 bc db b7 59 3b 92 87 0b bc
       0.02370341 -0.01854373 0.0033221159 -0.008516209
0001c0 87 9b d7 bc 96 31 0e bd 45 4a dc bc 09 7a fe bc
       -0.026319278 -0.034715258 -0.026890883 -0.03106405
0001d0 c4 5c 88 3b b5 f3 14 3c ad 50 8a 3c f5 41 f5 3c
       0.004161449 0.009091307 0.016884172 0.029938677
0001e0 f6 84 99 3c ae 66 8e bb 2e 2d dd bc 65 5c 05 bd
       0.018740159 -0.0043457365 -0.026999082 -0.032558817
0001f0 d4 a7 a9 bc b3 98 ac ba 07 df a5 3c 4a 56 de 3c
       -0.02070991 -0.0013168067 0.02024795 0.027140755
000200 71 97 8f 3b 8b b2 46 3c e4 5a 2b 3c 6c b6 92 3c
       0.004382067 0.012127529 0.010458682 0.017909251
000210 05 7e fe bc c3 df 99 bc 1f 26 d0 3c 6d bf 9f 3c
       -0.03106595 -0.018783456 0.025408803 0.019500459
000220 b2 42 7b bc 8e c9 20 bc 85 99 7c bc ad 86 f1 3c
       -0.015335726 -0.009813679 -0.015417461 0.029483164
000230 53 d7 96 3c ee 18 bd 3c 1c c7 05 3c e3 9a 13 3c
       0.018413221 0.023083176 0.008165147 0.009009096
000240 94 92 27 bc 75 79 10 bd 89 9a 87 3c 9c 41 7a bc
       -0.010227818 -0.03527208 0.01655318 -0.015274432
000250 b0 47 89 3c f3 0f 26 bc d5 ef 85 3c 42 7c 0d 3d
       0.016757816 -0.0101356385 0.016349712 0.03454233
000260 36 e7 b1 3c 11 d7 ad 3c 4d 17 ac 3c 21 bc 9f 3a
       0.021716695 0.021220716 0.021007204 0.0012186804
000270 16 1d c5 3b fe 93 ab bc 41 7d 7a bb 57 e9 5e bc
       0.00601543 -0.020944592 -0.003822163 -0.013605437
000280 55 1e bd bb 60 a4 d9 3c b3 ac 07 bd 2d 0b 75 3c
       -0.005771438 0.026567638 -0.033123683 0.014956278
000290 00 09 f4 bc d5 d4 ab bb 9a 7a 04 3d 9d 5c 82 bc
       -0.029789448 -0.0052438774 0.032343484 -0.015913302
0002a0 01 b7 54 3c 59 95 bb bc 51 0c f3 bc bf f5 f0 3c
       0.012983085 -0.022898363 -0.029668959 0.029414056
0002b0 8f a3 12 3c 8b ba f0 3c 6d fa cb 3c f7 3a 36 3c
       0.008950128 0.029385826 0.024899686 0.011122457
0002c0 a0 0b 36 3c cd ae 54 bc 01 2c b3 bb 57 ef ed bc
       0.01111117 -0.012981129 -0.005467892 -0.02904479
0002d0 c2 de d8 3c df fb b9 bc 7d fb d1 bc 4c ae c8 bc
       0.026473407 -0.02270311 -0.025632614 -0.024497174
0002e0 7d 62 fd bc 33 ed e4 3c b6 b6 95 bc 9e a9 e1 bc
       -0.030930752 0.027945137 -0.0182756 -0.0275467
0002f0 d6 ec 8d 3c a0 96 a0 3b fb da 83 bc b6 f9 13 3c
       0.017324846 0.0049007684 -0.016095629 0.009031704
000300 4f 26 cd bb b5 22 f2 3c ab dd c5 3c 9c c1 94 3c
       -0.0062606703 0.029557565 0.024153551 0.018158726
000310 93 46 9c bc 6a 76 e3 bc 47 ac 08 bd 0a b6 f6 bb
       -0.019076621 -0.027766425 -0.03336742 -0.007529025
000320 60 3a eb 3c 8c 06 03 3d 02 2b 67 3c dc ee 9a bc
       0.028714359 0.031988665 0.014109375 -0.018912725
000330 89 83 03 bd 0b cc c6 3c 15 52 9d bc 29 64 79 3c
       -0.032107864 0.024267217 -0.019204179 0.015221634
000340 6c c7 e3 3c 28 05 55 bc 28 9d 61 bc 6b af 2a bc
       0.027805053 -0.013001718 -0.013770379 -0.010417799
000350 04 df df bc af 80 a3 bc 3e b5 13 3a 46 05 49 3c
       -0.027328022 -0.019958822 0.0005634612 0.012269324
000360 8c 5d 85 bc 5a e5 4d bc 04 0f 8d bc 99 1d 26 3c
       -0.016279958 -0.012566889 -0.017219074 0.010138893
000370 0d 0e 48 ba f4 ab be 3c 68 d6 04 3d 69 2e 3a 3c
       -0.0007631488 0.023275353 0.032431036 0.011363604
000380 d9 56 af bc ee ec 05 bd 08 4e 9f 3b 7e bd 0a 3d
       -0.021403717 -0.032696657 0.004861597 0.03387212
000390 97 1d 53 39 17 ad 01 bd fd 18 8d bc f9 40 05 3d
       0.00020133551 -0.031659212 -0.01722383 0.032532666
0003a0 9c 97 26 3c de 0c b0 3a e1 76 90 bc 2b 75 40 3c
       0.010167982 0.0013431569 -0.01763481 0.011746685
0003b0 59 70 8e 3c a7 51 84 3c 4f 4f 99 bc d3 68 df bc
       0.017387556 0.016152216 -0.018714575 -0.027271664
0003c0 c9 4d 04 bd cd fa dc 3c 5c 13 d6 3c 65 50 f4 3c
       -0.032300744 0.02697506 0.026132278 0.029823491
0003d0 ca ef 2d 3c 3f 7f 9f bb ee 68 11 3c bb a1 06 bb
       0.010616252 -0.004867464 0.008875115 -0.0020543176
0003e0 10 d7 48 bc 78 70 5d b9 ba 75 55 bc ce d3 2d bc
       -0.012258306 -0.000211181 -0.0130285565 -0.01060958
0003f0 0e 61 f2 3c 71 62 0e bd 38 4b a1 3a 66 ab 9e 3c
       0.029587295 -0.03476185 0.0012305742 0.019368839

classifier.0.bias f4 [256]
000000 2f d3 07 bc f5 2a 91 bc b4 3e 61 bc 8d 8a 6c 3c
       -0.008290096 -0.017720679 -0.01374786 0.01443733
000010 ba ea f0 bc 6f 68 1c bd c2 c4 ea 3a a4 39 5c 3c
       -0.029408801 -0.038185533 0.0017911422 0.013441477
000020 7e 54 06 bd df 65 b5 bc b6 57 05 3d 45 33 ea bb
       -0.03279542 -0.022143302 0.03255435 -0.007147225
000030 5d 6f 0b bd 24 0e 10 bd 54 07 2c bd 95 c9 0f bc
       -0.03404175 -0.035169736 -0.041999176 -0.008776088
000040 d0 3b b7 3c e5 f8 42 3d b1 af 10 3c 88 c7 29 bc
       0.022367388 0.047600646 0.008830951 -0.010362513
000050 74 84 bb 3c ff 21 5b 3c 71 a0 a4 3c 97 e6 cd bc
       0.022890307 0.0133748045 0.020096036 -0.025134368
000060 5a e6 85 3c 88 20 a3 bc 7b 54 d0 3c af 04 f9 bc
       0.016345192 -0.019912973 0.025430908 -0.030397741
000070 df b0 41 bc 61 09 14 bd f8 24 b3 bc 31 46 1c bb
       -0.0118219545 -0.036141757 -0.021868214 -0.0023845548
000080 b8 a7 ab bc 29 04 3c 3a db e6 d3 3c 26 a3 52 bc
       -0.020953998 0.0007172251 0.025866916 -0.01285628
000090 9d 2c e8 bc 94 1b c4 bc 3a e8 f6 bc fa 3e 01 bd
       -0.028341586 -0.023938932 -0.030140031 -0.0315542
0000a0 8e 08 0d 3c 33 dc f0 3c c0 79 ed bc 08 a9 87 3c
       0.008607997 0.029401874 -0.028988719 0.016560093
0000b0 69 0c e4 3c ae 8e a7 bc bc be 67 3b 88 7f 0a bb
       0.027837949 -0.020453777 0.003536149 -0.0021133143
0000c0 bf 99 d6 3b cd 6d d3 bc f6 48 7b 3c 71 23 06 3d
       0.0065490897 -0.025809193 0.015337219 0.032748643
0000d0 b9 d5 ac bc 16 7f eb 3c 47 7e 88 3b e4 2a 32 3b
       -0.021098005 0.028747123 0.004165444 0.002718621
0000e0 ab d3 74 3c 79 91 0b 3c 02 ea e3 3c 3b 52 d5 bb
       0.014943044 0.00851857 0.027821545 -0.006510047
0000f0 ec 5a be 3a 93 6e 65 3b 51 52 a9 3c e1 80 36 3b
       0.0014522946 0.0035008534 0.020669134 0.0027847814
000100 79 9a 3e bc 54 5e a3 bc 0a de ef bc 02 c3 dd bc
       -0.011633509 -0.01994244 -0.029280681 -0.027070526
000110 9c 41 0a 3c ce ae 39 3c 9a e3 49 bb da a3 83 3b
       0.008438494 0.011333181 -0.0030805827 0.0040173354
000120 94 f1 ca bc 3f f2 0c bc 6f 1a c7 bc bd 02 87 3b
       -0.024773397 -0.008602678 -0.024304597 0.0041201995
000130 42 c0 5c bc cb 5e ca 3c fd fb 88 bc fd b9 20 bd
       -0.013473572 0.024703404 -0.01672172 -0.039239872
000140 12 a3 12 3a 95 b6 3f bc 44 80 7b 3b 47 0e 4a bb
       0.00055937574 -0.011701246 0.0038376013 -0.0030831264
000150 4f 40 26 bd c8 5d 02 bd dd 21 02 bd 69 7a 04 bd
       -0.040588673 -0.031827718 -0.031770576 -0.032343302
000160 28 c0 27 bd 95 dd d8 bc 6b cf 90 3c 55 b4 21 bd
       -0.04095474 -0.026472846 0.01767703 -0.03947862
000170 9c cf 88 3c 1d 66 19 bd e0 05 88 bc 89 96 89 bb
       0.016700558 -0.0374509 -0.016604364 -0.0041988534
000180 d1 61 71 bc 8e 6d 94 3c 89 d2 00 3d 42 67 b3 bc
       -0.014732794 0.018118646 0.031450782 -0.021899823
000190 3e cf ba bc be 11 96 3c 92 53 7a 3c 97 1b c4 bb
       -0.022803899 0.018319007 0.015278714 -0.0059847343
0001a0 c1 df d8 bc a8 7b 6e bc 86 86 6d bc 38 d2 b6 3c
       -0.026473882 -0.014555849 -0.014497405 0.022317037
0001b0 10 91 e6 3c f1 cc fe bb 92 41 df bc ba cf 74 3c
       0.028145343 -0.0077758958 -0.027252946 0.014942104
0001c0 84 ec 31 3c ca cb b5 bc c1 95 86 bc 82 e8 99 bc
       0.010859612 -0.0221919 -0.01642883 -0.018787626
0001d0 25 74 c9 bc b0 55 7e bb cf ad ec 3c 12 2d 1a 3c
       -0.024591515 -0.0038808398 0.028891472 0.00941016
0001e0 d1 01 49 bc 86 54 a7 bc 5d 2a 0c bc c8 35 c0 3c
       -0.0122684995 -0.020426046 -0.008555022 0.023463145
0001f0 1d 3d 06 3d a4 a0 f8 bc 3b 77 e7 bc 2a 1f fa 3c
       0.032773126 -0.030350037 -0.028255096 0.030532438
000200 e2 ef 03 bd ef 4d db bb fb 20 85 3d 94 40 0c bc
       -0.032211192 -0.00669264 0.06500431 -0.0085603185
000210 83 c6 17 3c ea 59 fa bc d2 46 be 3b ff f2 f3 3b
       0.0092636375 -0.030560452 0.0058067823 0.007444739
000220 16 52 2e 3d bb 6d b0 bc b2 81 ce 3c 36 1b 38 bd
       0.042558752 -0.021536699 0.025208328 -0.044947825
000230 9a c3 24 bd 06 9a 18 3c 32 90 32 3c ea 10 04 3c
       -0.040225603 0.009314066 0.010898637 0.008060673
000240 1f c1 f5 3c 88 47 ef ba ad 89 0a bd a3 73 b6 3c
       0.029999314 -0.0018255571 -0.033822704 0.022271937
000250 a8 6f b0 bc 26 a3 20 3c 84 ed f2 bc f5 03 7d 3d
       -0.021537617 0.009804523 -0.029654272 0.06177135
000260 3b 32 ed 3b 68 13 dc bc c9 1c 12 bd a8 22 a9 bc
       0.007238654 -0.026864722 -0.035671983 -0.020646408
000270 96 58 19 bd 34 60 34 bd 9a 00 d8 ba 77 de 21 3c
       -0.037437998 -0.04403706 -0.0016479671 0.0098797
000280 36 c8 e7 3c d0 8a 87 3c 55 c2 e3 b7 c1 e7 42 bc
       0.02829371 0.016545683 -2.7151002e-05 -0.011896075
000290 69 c9 22 bd 2e 19 25 bc 06 16 04 3d fe 5e 83 3c
       -0.03974286 -0.010076804 0.032247566 0.016036507
0002a0 ce 86 b4 39 ad 2c c9 3c 9b 3f 94 bc 94 13 38 3b
       0.00034432713 0.024557436 -0.018096736 0.0028087841
0002b0 22 2c 83 bb b3 08 fc bc 36 0f 08 bd 2a 69 a5 bb
       -0.004003064 -0.030765867 -0.03321763 -0.005047937
0002c0 9b 02 c5 3b c5 f3 00 bd b6 37 b0 3c 2e de 9b bb
       0.0060122735 -0.031482477 0.02151094 -0.0047567105
0002d0 39 a7 89 3c ba a1 ea 3c f2 6f f7 3c c7 04 02 bd
       0.01680337 0.02864157 0.030204747 -0.031742837
0002e0 a3 ec 3f bc 7e 25 c4 3c f1 6d c6 bc cc 7d 41 3c
       -0.011714133 0.023943659 -0.024222346 0.0118097775
0002f0 cc 6a a9 3d b2 cb ca 3c 12 a1 39 3b f7 dd 7e 3c
       0.08272323 0.024755333 0.0028324765 0.01555585
000300 fc 5f bd 3b a7 43 12 bd fc f9 9d 3b b5 a4 12 bb
       0.0057792645 -0.03570905 0.00482106 -0.0022376005
000310 df fc 2b 3c f1 b2 1a bd f9 e5 ec bc 55 0c 09 bd
       0.010497301 -0.037768308 -0.028918253 -0.033459026
000320 af 59 c9 3a a3 30 ef 3a ac da 00 3c ed 90 d4 3c
       0.0015361811 0.0018248748 0.007864635 0.025948012
000330 6e 3a d0 bc f0 fe 95 bc 0f 3c 1b bc f3 f5 0c 3c
       -0.025418486 -0.01831004 -0.009474768 0.008603561
000340 32 66 f9 3b b3 72 c4 3c 62 73 c0 3b 19 dd f3 bc
       0.0076110596 0.023980474 0.0058731297 -0.029768514
000350 62 ba c4 3c 25 78 24 bc 26 3c 7a bc 20 9f 81 ba
       0.024014656 -0.01003841 -0.01527313 -0.0009889342
000360 56 8d 13 bd 5b c5 d9 3b 54 c3 1d bc e1 a4 96 bc
       -0.03602346 0.006645841 -0.009629089 -0.018389167
000370 f1 ab de 3b c5 95 03 3d 81 a1 8e 3c 75 0a c1 3c
       0.0067953994 0.032125253 0.017410995 0.023564557
000380 bf 57 d7 b9 5b d2 f9 bc b8 79 42 bc 2e 9a 86 bc
       -0.00041073372 -0.030495813 -0.01186984 -0.01643094
000390 ba 97 08 bd 05 c2 13 bd 46 7f 53 bc 8b 6d 8a bb
       -0.033347823 -0.036073703 -0.012908762 -0.0042244843
0003a0 e5 0d e2 bc 7c 14 7f 3d 16 b1 cc 3c 62 36 3b 3b
       -0.027594516 0.062275395 0.024986785 0.002856635
0003b0 dc 11 89 3c ab fb 19 bd 66 1e 72 3d 43 51 d0 3b
       0.016732149 -0.037593525 0.05911102 0.0063573434
0003c0 a5 53 15 bd d1 73 a3 bc cc c1 10 bd 14 19 84 bc
       -0.036456723 -0.019952687 -0.03534107 -0.01612524
0003d0 9e d9 3a 3b 91 cf 0c bd e7 57 ab 3c f5 d0 07 bd
       0.0028511058 -0.03437764 0.020915939 -0.03315826
0003e0 d9 91 91 bc de 6d ed 3c eb 5f 9b bc 2b 78 1d bd
       -0.01776974 0.028983053 -0.018966636 -0.03844468
0003f0 4e 67 86 3d 71 48 b0 3c eb e4 d9 bc 7d 33 65 3c
       0.065626726 0.021518918 -0.026598414 0.013989327

classifier.3.weight f4 [1, 256]
000000 26 20 43 bd 39 0c 12 be b6 4d 67 3d 17 68 fe 3c
       -0.04763808 -0.14262475 0.056470595 0.031055493
000010 27 2c 66 3d e1 51 5a bd 16 a6 b3 bd 53 85 d6 bd
       0.05619445 -0.053300742 -0.08771913 -0.10474648
000020 f0 62 55 3d 9c eb ac bc 18 3b 27 bd b0 27 3f 3c
       0.052096307 -0.021108441 -0.04082784 0.011667177
000030 01 13 79 3c 16 74 5b 3c f9 be a4 bd c7 c8 7d bd
       0.015202285 0.013394376 -0.08044238 -0.061959054
000040 10 92 08 bc b8 50 7a be bb 6a 8a 3c 55 d5 38 3d
       -0.008335605 -0.24444854 0.016896596 0.045125324
000050 c0 f1 81 bd 15 5a 07 be 62 be e4 3c 0c 6e a3 bb
       -0.06344938 -0.13217957 0.027922813 -0.004987484
000060 5a ad ee 3c 31 9a 08 3d e4 0f 03 be 74 82 60 3d
       0.029135395 0.033350173 -0.1279903 0.05481191
000070 32 a5 27 bb f1 54 e0 bc 08 cb dc ba 87 77 09 3d
       -0.0025580642 -0.027384253 -0.0016845176 0.033561256
000080 70 06 d7 3b 2b 8a 25 3c fa 26 e0 3b 54 62 21 3d
       0.0065620467 0.010103743 0.006840584 0.039400414
000090 52 39 eb bd aa 9e d4 bd 08 cd fb 3c b0 54 3c bd
       -0.11485542 -0.10381825 0.030737415 -0.0459792
0000a0 8c 36 9e bc d2 51 74 3d 08 dc d3 bd c0 1e 5b 3d
       -0.01931312 0.059648342 -0.10344702 0.053496122
0000b0 90 5e 05 3d eb d2 fb bd c1 a0 79 bd 36 77 a1 bd
       0.032560885 -0.12296089 -0.060944322 -0.07884066
0000c0 a2 29 5c 3d 5a c1 c5 bd 0c e9 96 3b 2c 54 c6 bc
       0.05375064 -0.096560195 0.004605418 -0.024210058
0000d0 a1 9b b1 bd ee 8a 60 3d 70 c8 3f bd cd 26 a1 bc
       -0.08672262 0.054819994 -0.04682201 -0.019671822
0000e0 4c e7 a3 3c 20 dd b4 3b 9e 39 f9 bd ab 8d 38 3d
       0.020007752 0.005519524 -0.12169193 0.04505698
0000f0 26 38 04 be f3 91 de 3c 84 a2 fe 3c b0 f1 4b 3c
       -0.12912044 0.027169203 0.031083353 0.0124477595
000100 a0 fc 1d bd da ab 53 3d c0 9f 80 bb d3 82 fa 3e
       -0.038571 0.051677562 -0.0039252937 0.48927936
000110 92 02 0c be 33 22 1e bc d6 19 2a bd 44 5a 37 3d
       -0.13672855 -0.009651708 -0.041528545 0.04476382
000120 10 0b 76 bd db d1 af 3c 1e bf 3f bd 6f 9d 15 bd
       -0.060069144 0.021462372 -0.046813123 -0.036527093
000130 8c 1d 28 bd 9d c6 57 be 18 35 13 bc fa 2d f1 3c
       -0.041043803 -0.21071859 -0.0089848265 0.029440869
000140 b8 d2 d4 bc 1d ef 51 3d 7c 39 87 bc 9c 45 08 bd
       -0.025979385 0.051253427 -0.016506903 -0.03326951
000150 b4 e0 48 3b ac 2c 9b 3c 1a 0f 01 be 82 5a ca 3c
       0.0030651512 0.0189422 -0.12603417 0.02470136
000160 50 ae 18 3c 8c 26 66 bd e4 b4 55 bc 2b 8f c8 3b
       0.009318903 -0.056189105 -0.013043616 0.0061205826
000170 1a fd 3e 3d 12 37 c1 bd 13 b9 9d bd db 07 57 3a
       0.046628095 -0.09434332 -0.07701316 0.00082027697
000180 a8 c8 be 3c 65 c6 e0 bd e0 c9 19 3c a7 54 2a 3d
       0.02328904 -0.10975341 0.00938651 0.041584637
000190 99 5c c0 3e 1c 59 46 3d ab db b5 be bb a6 53 3d
       0.37570646 0.048424825 -0.35519156 0.05167268
0001a0 1a aa 5a 3d a0 8b e8 bb e0 57 ca bd 42 55 4c 3d
       0.053384878 -0.0070967227 -0.09880042 0.049885996
0001b0 86 ea 55 bd 76 e4 1c 3d 60 16 4d 3c 2c 1e aa bc
       -0.052225612 0.038303815 0.012517542 -0.02076634
0001c0 4b 37 d7 3c ce f0 15 bc 6c eb 9c bc 94 0c be bd
       0.026271483 -0.009151651 -0.019155227 -0.09279743
0001d0 08 21 53 bc 40 68 d7 3c 7b ec 50 be 56 74 dc 3b
       -0.012886293 0.026294827 -0.2040271 0.0067277355
0001e0 0f 7b ab 3e 82 25 2a bd 38 1c 08 bd 15 f3 a7 bd
       0.33492324 -0.041539676 -0.033230036 -0.08200661
0001f0 4e 05 73 bd cd fb 56 3d ed 17 c2 bd a0 48 d3 3b
       -0.05933123 0.05248623 -0.0947722 0.0064478666
000200 57 c2 8b ba 62 e2 14 bd c5 f9 3c be d9 f8 e3 bd
       -0.0010662776 -0.036348708 -0.18454655 -0.11131448
000210 9c 0c 5c bd f0 4c d1 bd 38 c6 33 bd 21 6e e9 3c
       -0.053722963 -0.10219753 -0.043890208 0.028494896
000220 10 0b 34 be 0a b6 30 3d 5c 8d 29 3d 3c e0 7d bd
       -0.17582345 0.043142356 0.041394576 -0.061981425
000230 26 5e d2 3b 30 69 29 bc 26 06 04 3d 12 c0 15 3d
       0.006419915 -0.01034002 0.032232426 0.036560126
000240 38 eb e2 bc 16 a4 6b bd 3c 00 76 3d 11 72 cc bd
       -0.027700052 -0.05752953 0.060058817 -0.09982694
000250 ce 30 3b 3d ad 23 55 3c d2 01 65 3d 17 99 7f be
       0.04570084 0.013008994 0.05590994 -0.24960743
000260 40 56 27 bc d2 67 73 bd 3c 91 66 3d ab f4 06 bb
       -0.010213435 -0.059425183 0.05629085 -0.002059261
000270 83 1d 65 3b 48 af 0f bd f0 26 e5 bc 0c 7b 81 3c
       0.0034960217 -0.03507927 -0.027972668 0.015805744
000280 3a 7c 2c 3d 86 f6 39 3d 80 bd 41 bb f4 04 be bd
       0.04211066 0.04540112 -0.0029562414 -0.092782885
000290 62 97 14 bd 30 93 12 3b 6c 7a ba bc 4e 97 0b 3d
       -0.036277182 0.0022365563 -0.022763453 0.034079842
0002a0 c0 bc 97 3a 30 f8 a1 3b 80 e2 3d ba e6 f8 25 3d
       0.0011576638 0.0049429163 -0.0007243529 0.04052057
0002b0 16 3d 43 3d 13 37 ad bb a4 9a 36 3d d4 2e cf bc
       0.047665678 -0.0052861064 0.04458107 -0.025290884
0002c0 7c 1f 4b 3d 4c ef b4 bc bb f3 03 3d c0 8d 24 bc
       0.049590573 -0.022086762 0.03221486 -0.010043561
0002d0 af e9 8d 3c c2 52 45 3d f0 81 8f be 6e dc 59 3d
       0.017323343 0.048174627 -0.28028822 0.053188734
0002e0 b7 48 c5 3b 28 76 6e bd fd 3c 66 bd 4e ab 78 bd
       0.006020631 -0.05821815 -0.056210507 -0.060710244
0002f0 8d 1a 8e be 83 04 6b 3d 5d 65 31 3d 70 32 e0 bc
       -0.27754632 0.05737735 0.04330956 -0.0273678
000300 9b 3b 16 3c 45 58 44 3d 10 8e 5a 3c 0e e4 ac bc
       0.0091694845 0.047935743 0.013339534 -0.021104839
000310 70 91 2c 3c f4 dd 7c 3c d8 84 06 3d 40 e7 5e 3c
       0.010532722 0.015433777 0.032841533 0.013604939
000320 ce 4f 54 3d 66 53 32 3d 2f b4 f9 3a a8 68 d3 3c
       0.05183392 0.043536566 0.0019050891 0.02580674
000330 e2 ff 73 bd 4f 6e 9f 3b 8c 89 8f bd f0 b1 1f 3c
       -0.0595702 0.0048654447 -0.07008657 0.009747013
000340 65 f1 a3 be 7a 58 77 3d a1 e6 d1 bd b0 93 d2 3b
       -0.32020107 0.060387112 -0.10249067 0.006426297
000350 ab 64 af bd 58 d9 7e 3c 5f af a5 3c 4c 2d 9b 3a
       -0.08564123 0.0155547485 0.020225225 0.0011839061
000360 46 84 ee 3e fd 53 44 bb f7 6d db bd ba 17 49 3b
       0.46585292 -0.0029957287 -0.107143335 0.0030684308
000370 77 33 91 bd 2c e6 cb bc 58 85 66 3c 8e e1 59 3d
       -0.07089894 -0.024890028 0.014069878 0.05319362
000380 cc 2d d7 bc 66 13 54 3d 3e 47 3b 3d a0 d0 a9 bb
       -0.026266955 0.051776312 0.04572224 -0.0051823407
000390 e5 43 ca 3b b0 87 8b 3e 6c d3 6c 3d e0 54 b3 bc
       0.0061726444 0.2725196 0.057818815 -0.021891057
0003a0 0b 29 a6 bb 6d 41 53 be 55 25 38 be c0 4b 37 3d
       -0.0050708107 -0.20630427 -0.17982991 0.044749975
0003b0 c0 0c 5b bc 93 5a 2b be f7 1a 54 be b8 06 4a 3d
       -0.013369739 -0.1673377 -0.20713411 0.049322814
0003c0 60 05 da 3e c0 ba 89 3b 33 68 81 3c 09 0f 28 3d
       0.42582226 0.0042031705 0.015796756 0.041029964
0003d0 cb 86 d5 3c 38 df ca bc 97 03 b7 3c 59 6f 4f 3d
       0.02606525 -0.024764642 0.022340579 0.0506433
0003e0 e0 20 e5 bc d4 75 e2 3c a0 6d 7d bb fa 91 2e 3d
       -0.027969778 0.027644075 -0.0038670078 0.042619683
0003f0 f7 41 3a be b4 c7 d7 3c 69 ac 99 bd bd 1a 40 bd
       -0.18189226 0.026340343 -0.07503588 -0.0469005
