best_dna_classifier.pth (torch, 824704 bytes, 5 tensors)

feature_encoder.0.weight f4 [32, 2]
0	0x3e5a9a18	0.21347845
1	0xbf41f0d6	-0.7575811
2	0xbf1131f4	-0.5671685
3	0xbf0578c2	-0.52137387
4	0x3e2f10eb	0.17096297
5	0x3eb23332	0.34804684
6	0x3ebf6ef9	0.37389353
7	0x3f36d47e	0.7141799
8	0x3f1e8f9f	0.619379
9	0x3ee56820	0.44806004
10	0xbe8b125f	-0.27162454
11	0x3e0b2f60	0.13592291
12	0xbead414e	-0.33838886
13	0x3f08c983	0.5343248
14	0xbe9eebc5	-0.31039253
15	0xbe98cb03	-0.29842386
16	0x3f02056a	0.5078951
17	0xbe634549	-0.22194399
18	0xbf080e56	-0.53146875
19	0xbd7eede1	-0.062238578
20	0xbe51d0da	-0.20489827
21	0xbebb5efd	-0.36595908
22	0xbf0175ff	-0.5057067
23	0x3f512270	0.8169317
24	0x3f35dce2	0.71040165
25	0x3eadcfd7	0.33947632
26	0x3e5058b7	0.20346342
27	0x3f40aaf3	0.7526085
28	0x3f10cead	0.5656536
29	0x3f41e789	0.7574392
30	0xbeb66026	-0.3562023
31	0xbf32c6f6	-0.6983484
32	0xbecad38a	-0.39614516
33	0x3eeb2d6a	0.45933086
34	0x3f2e9657	0.6819815
35	0x3f489dab	0.7836558
36	0x3ec5b6d2	0.38616043
37	0x3f065901	0.5247956
38	0x3f197fb8	0.5996051
39	0xbd5b57de	-0.053550594
40	0xbe173114	-0.14764816
41	0xbf068ec9	-0.5256162
42	0xbf1a0286	-0.601601
43	0xbd96d227	-0.07364302
44	0x3ef02857	0.46905777
45	0xbf2b511e	-0.6692065
46	0x3eccfbf1	0.40035966
47	0x3f20beec	0.62791324
48	0xbf29d4e3	-0.66340464
49	0x3d014428	0.03155914
50	0xbf1239b6	-0.5711931
51	0x3ee30ae5	0.4434425
52	0xbe995968	-0.29951024
53	0x3f320931	0.69545275
54	0x3edb2e3c	0.42808712
55	0x3e746e90	0.23870301
56	0x3eee53b3	0.46548232
57	0xbeffcae8	-0.49959493
58	0x3e0e2198	0.13880002
59	0x3da76e56	0.08175342
60	0xbe8136d7	-0.25237152
61	0x3f364f65	0.71214896
62	0x3ee9e524	0.45682633
63	0x3f068d22	0.525591

feature_encoder.0.bias f4 [32]
0	0x3f1c91ac	0.6115978
1	0xbca6d26c	-0.020364009
2	0xbd8198e0	-0.06327987
3	0x3daa53b9	0.0831675
4	0x3ecb1056	0.396609
5	0xbf080095	-0.5312589
6	0x3e373a7c	0.17893404
7	0x3f03ac81	0.51435095
8	0x3f0abd70	0.5419531
9	0x3edb92e3	0.42885503
10	0x3f024b28	0.5089593
11	0x3e24583b	0.16049282
12	0xbe9112eb	-0.28334746
13	0x3f162df7	0.58663887
14	0x3ee1ba69	0.44087532
15	0xbf28fbbe	-0.6600913
16	0x3f208943	0.62709445
17	0x3e8b72e7	0.272361
18	0x3e848808	0.25885034
19	0x3df70b07	0.1206265
20	0xbecb3da8	-0.39695477
21	0xbebd5420	-0.36978245
22	0x3ed35f29	0.4128354
23	0x3e71d667	0.23616944
24	0xbe9e1cef	-0.3088145
25	0x3f120e56	0.57053125
26	0x3eda259c	0.4260682
27	0x3ede21ba	0.43385106
28	0x3e2fb635	0.1715935
29	0xbec66eb7	-0.38756344
30	0xbf0a5e90	-0.5405054
31	0x3eaeda93	0.34151134

classifier.0.weight f4 [256, 800]
0	0xbce99215	-0.02851204
1	0xbd284be7	-0.04108801
2	0x3b4b8e2b	0.003106008
3	0xbc5a685b	-0.013330544
4	0xbce7e3c0	-0.028306842
5	0xbca6eb29	-0.020375805
6	0xbc4f04b7	-0.012635401
7	0xbb887c61	-0.0041652177
8	0x3cc453fe	0.023965832
9	0x3cb26da8	0.021780804
10	0x3c0d586b	0.0086270375
11	0xbc9a6983	-0.01884914
12	0xb99ac9fd	-0.00029523662
13	0x3b9b9513	0.0047479956
14	0xbbb59018	-0.005540859
15	0xbceb208a	-0.02870204
16	0xbc89999a	-0.016796876
17	0x3c759295	0.014988561
18	0x3d161c8d	0.036648322
19	0x3c9267f2	0.01787183
20	0xbcdd95c0	-0.027048945
21	0x3abd0205	0.0014420158
22	0xbcb5256d	-0.022112573
23	0x3c0277c3	0.007963124
24	0x3c9cecb4	0.019155838
25	0xbc95bfc3	-0.018279916
26	0xbabe5d93	-0.0014523737
27	0x3ceca077	0.02888511
28	0xbd1d75af	-0.03844231
29	0x3d16c29e	0.036806695
30	0xbd1d37c1	-0.03838325
31	0xbc8f60fe	-0.017502304
32	0x3b9ce909	0.004788522
33	0xbcb8a356	-0.022538822
34	0xbc88df35	-0.016707996
35	0xbc2253d2	-0.00990768
36	0xbd13c22a	-0.03607384
37	0xbd004a45	-0.03132083
38	0xbca0a96c	-0.019612037
39	0xbd27bed2	-0.040953465
40	0xbbfb149f	-0.0076623703
41	0x3d01a8ae	0.031655006
42	0x3cdbeb8c	0.026845716
43	0x3c0e4150	0.008682564
44	0xbc8f9edf	-0.01753181
45	0xbc49dd9c	-0.012320902
46	0x3d19f9ee	0.037591867
47	0xbc220e4c	-0.009891104
48	0xbced2edf	-0.028953014
49	0x3c3f79e8	0.01168678
50	0xbd10c9f7	-0.03534886
51	0xbcdfafdc	-0.027305536
52	0xbd0d5894	-0.034508303
53	0x3d280541	0.041020636
54	0xbcedabb2	-0.029012535
55	0x3bde117b	0.006776986
56	0x3d0daa17	0.03458604
57	0x3bbbc1ec	0.0057299044
58	0xbbf01d97	-0.007327746
59	0xbc642204	-0.013924126
60	0x3ce5f7b5	0.028072217
61	0x3af02edc	0.0018324512
62	0xbb40477a	-0.0029339478
63	0xbd208c41	-0.039196257
64	0xbc9ba760	-0.019000709
65	0xbcbed267	-0.023293687
66	0xbab3a85c	-0.0013706791
67	0xbcea988d	-0.028637195
68	0xbd1fb6c3	-0.038992655
69	0xbc2659ec	-0.010153275
70	0x3c95d7a2	0.018291298
71	0x3c896d70	0.016775817
72	0xbbb9f4ce	-0.005674935
73	0x3d000b62	0.031260855
74	0x3cc577b8	0.024104938
75	0x3cc08e3e	0.023505326
76	0x3c819c50	0.015821606
77	0x3a2d2549	0.0006604982
78	0x3b668548	0.0035174657
79	0xb9a1a094	-0.00030827953
80	0xbc4e647a	-0.012597198
81	0xbc3c5b2b	-0.0114963455
82	0x3cb7896a	0.022404391
83	0xbc6ba553	-0.014382678
84	0xbce70ab4	-0.028203346
85	0x3cb4027e	0.021973845
86	0xbcbe1ac5	-0.023206124
87	0xbb0170b7	-0.0019751021
88	0x3ab51150	0.0013814364
89	0x3b99eb5e	0.0046972474
90	0xbcc8c2c8	-0.024506941
91	0xbcec8145	-0.028870234
92	0xbc257dab	-0.010100762
93	0xbcfcd1f9	-0.030861842
94	0xbc3ca14a	-0.011513064
95	0x3d14f6a8	0.036368042
96	0x3b1c977e	0.0023894007
97	0xbc55b90e	-0.013044609
98	0x3cffc576	0.031222086
99	0xbcbd2c02	-0.023092274
100	0x3cc38c77	0.02387069
101	0xbb16a277	-0.002298502
102	0xbcc382b6	-0.023866039
103	0xbba609cf	-0.0050670872
104	0x3cbbed46	0.02294029
105	0x3c66fd28	0.014098443
106	0xbcd2b232	-0.025719736
107	0x3ceb37b8	0.028713092
108	0x3cbad473	0.022806382
109	0x3c54f3bd	0.012997565
110	0xb8f6f1fe	-0.00011775269
111	0x3c2039eb	0.009779434
112	0x3c6857b1	0.0141810635
113	0x3ce8ffb7	0.028442247
114	0xbc9961fe	-0.018723484
115	0x3b0bea52	0.0021349383
116	0xbcc6b106	-0.024254333
117	0xbd040ceb	-0.032238882
118	0xbcc9b5da	-0.024622846
119	0xbca8d258	-0.020608112
120	0xbc1e9ac4	-0.009680454
121	0x3c9529b3	0.01820836
122	0x3d03693d	0.032082785
123	0xbc05fa41	-0.008177341
124	0xbc5df684	-0.013547543
125	0x3d1c74fb	0.0381975
126	0xbb2d941e	-0.002648599
127	0xba12fc5e	-0.00056070636
128	0x3cc0b9cb	0.023526093
129	0xbcd25c6d	-0.025678838
130	0xbd07be2e	-0.033140354
131	0xbcc5af88	-0.024131551
132	0xbc290520	-0.010316163
133	0xbcc2c8d8	-0.02377741
134	0x3d1c3639	0.03813765
135	0x3d0a66f0	0.033789575
136	0xbcca6360	-0.024705589
137	0xbcb144f6	-0.021639328
138	0x3a98117c	0.001160189
139	0x3c256c3e	0.010096608
140	0x3ca56c9b	0.020193389
141	0xbcafd9e7	-0.021466209
142	0x3bf1c287	0.007377926
143	0xbc248f6f	-0.010043963
144	0x3c8275dd	0.015925342
145	0x3c63b147	0.013897247
146	0x3b022df4	0.0019863816
147	0xbc3c0dd9	-0.011477911
148	0xbcce783d	-0.025203818
149	0x3ccedf36	0.02525292
150	0x3b4d3a7a	0.0031315372
151	0x3cabd6f5	0.020976523
152	0xbb8ed45f	-0.0043588127
153	0xbc0367f0	-0.008020386
154	0x3b7ee19d	0.00388918
155	0xbcf6419b	-0.03006058
156	0x3d286433	0.041111182
157	0xbc220b39	-0.009890371
158	0x3c5f84b1	0.013642476
159	0x3bea6714	0.007153401
160	0xbbe6a3fe	-0.0070385924
161	0xbd15a63c	-0.036535487
162	0xbd0ec5cd	-0.034856606
163	0x3beccfbd	0.007226913
164	0xbcee3689	-0.029078739
165	0x3d16e0fd	0.03683566
166	0xbc3f20ae	-0.011665506
167	0xbc53f602	-0.012937071
168	0x3cf35f5b	0.029708555
169	0xbc4d6dba	-0.012538368
170	0xbb2fd859	-0.0026831834
171	0xbc6de7fd	-0.014520642
172	0xbca691ae	-0.020333137
173	0xbceb310c	-0.02870991
174	0xbcab1840	-0.020885587
175	0xbccd505d	-0.025062734
176	0x3c269262	0.010166736
177	0x3c775491	0.015095846
178	0x3c323db2	0.010878967
179	0x3d1339ae	0.03594368
180	0x3c50a5b5	0.01273482
181	0xbc2996a9	-0.010350862
182	0xbd072fb1	-0.033004466
183	0xbd1df569	-0.03856412
184	0xbc70f065	-0.014705752
185	0xbbefdd78	-0.0073201023
186	0x3c695a4b	0.014242719
187	0x3cad2538	0.021135911
188	0xbad4c393	-0.0016232602
189	0x3c948ac1	0.01813257
190	0x3c86dcd5	0.016462723
191	0x3cc3e7a1	0.02391416
192	0xbd17d80d	-0.037071276
193	0xbccb1099	-0.024788188
194	0x3d00abc0	0.031413794
195	0x3cd0f0b2	0.025505397
196	0xbc18e077	-0.00933086
197	0xbc8195cc	-0.015818499
198	0xbc1b4769	-0.009477475
199	0x3cc0548c	0.023477815
200	0x3c4b4adf	0.012407987
201	0x3c8be6ee	0.01707789
202	0x3c6827df	0.014169662
203	0x3c75fa86	0.015013343
204	0xbc84fb0f	-0.016232995
205	0xbcefc137	-0.029266937
206	0x3c2cd11f	0.010547905
207	0xbc17ded0	-0.009269431
208	0x3c302ce3	0.010752889
209	0xbb87582f	-0.0041303854
210	0x3c297d9f	0.010344892
211	0x3d2614f9	0.040547345
212	0x3ce312a4	0.02771885
213	0x3cdf08e4	0.027225919
214	0x3cdd493b	0.027012458
215	0x3becb63a	0.0072238715
216	0x3c44e6d0	0.012017921
217	0xbcdcc3da	-0.026948858
218	0xbc210360	-0.009827465
219	0xbbf914ab	-0.0076013408
220	0xbc40f30d	-0.011776698
221	0x3d056966	0.03257122
222	0xbcde27e3	-0.027118629
223	0x3c12b60f	0.008954539
224	0xbd129c0f	-0.03579336
225	0x3a4776ba	0.0007608939
226	0x3cd7c4d3	0.02633897
227	0xbcb388f6	-0.021915894
228	0x3c9b8d4c	0.018988274
229	0xbcecc75d	-0.028903658
230	0xbd121f2e	-0.035674267
231	0x3d1113c1	0.03541923
232	0x3b41006d	0.0029449717
233	0x3cbf8a49	0.02338137
234	0x3cfd2bb5	0.03090463
235	0x3ba81535	0.005129481
236	0x3ba76353	0.005108276
237	0xbc9b88af	-0.018986074
238	0x3a0cb115	0.00053669635
239	0xbd0f9064	-0.03504981
240	0x3ca7ae0c	0.020468734
241	0xbc88ca34	-0.01669798
242	0xbd018f84	-0.031631008
243	0xbcf9dee3	-0.030501788
244	0xbccc3151	-0.02492586
245	0x3cb3bc31	0.021940323
246	0xbc49183b	-0.012273843
247	0xbd096ace	-0.033549123
248	0x3c39759c	0.011319544
249	0xba90c2dd	-0.0011044402
250	0xbcb50cfa	-0.022100914
251	0x3c765cbe	0.01503676
252	0xb9860687	-0.00025563335
253	0x3d11a9f4	0.03556247
254	0x3c94bcec	0.018156491
255	0x3c471f7c	0.012153503

classifier.0.bias f4 [256]
0	0x3c27a48e	0.010232104
1	0xbb292b0c	-0.0025813011
2	0xbce54d42	-0.027990941
3	0x3c911b62	0.017713252
4	0xbce29c35	-0.027662376
5	0xbcdacc24	-0.02670867
6	0xbcf3dd01	-0.029768469
7	0xbbcc01a3	-0.006225781
8	0x3bade48c	0.005306786
9	0x3cfd1b5a	0.030896831
10	0xbb00242a	-0.0019552805
11	0xbc949767	-0.0181386
12	0xbcbf7684	-0.023371942
13	0xb9044168	-0.00012612867
14	0xbca7b447	-0.020471705
15	0x3c498153	0.0122989
16	0xbcb8a500	-0.022539616
17	0x3cdd367d	0.027003521
18	0xbbd14a5e	-0.006387039
19	0xba51685b	-0.00079882675
20	0xbd0abb49	-0.033870015
21	0xbbc98f2a	-0.0061510997
22	0x3c9f34f5	0.019434432
23	0xbcb765ae	-0.022387352
24	0x3b5d3f27	0.0033759566
25	0xbb2243b6	-0.0024759597
26	0x3c2900e9	0.010315158
27	0x3c2e8092	0.010650771
28	0xbcf1804e	-0.029480126
29	0x3cdf079f	0.027225314
30	0x3c057efc	0.008147951
31	0xbb52df6f	-0.0032176634
32	0x3d00bb2b	0.031428497
33	0xbc2a030a	-0.010376701
34	0xbc97e5aa	-0.01854213
35	0xbbd81661	-0.0065944646
36	0xbc48f4a6	-0.01226536
37	0xbd217bdd	-0.039424766
38	0xbc8ad66b	-0.016947946
39	0xbb244fd2	-0.002507199
40	0x3b4e0b74	0.0031439932
41	0xbc611c4c	-0.013739657
42	0x3c415524	0.011800084
43	0xbc09ad3a	-0.008403117
44	0x3c40bc37	0.011763624
45	0xbc009dc0	-0.0078501105
46	0xbcfc503d	-0.03079998
47	0xbcbdfe9a	-0.023192693
48	0x3c6e43a7	0.014542497
49	0xbd15a1d1	-0.036531273
50	0xbc8e8b17	-0.017400308
51	0x3c58fa4e	0.013243271
52	0xbd14b059	-0.03630099
53	0x3cbc9d8d	0.023024345
54	0xbc4faffd	-0.012676236
55	0xbbcc5acd	-0.0062364102
56	0xbceac075	-0.028656224
57	0xbcd9a485	-0.026567707
58	0x3c9c946d	0.019113744
59	0xbaca5490	-0.0015436579
60	0xbc3c37bd	-0.011487898
61	0xbb5b1fa7	-0.0033435614
62	0xbc7b1874	-0.015325654
63	0x3cad060b	0.021121046
64	0xbced02f4	-0.028932072
65	0xbd0666c1	-0.032812838
66	0x3b7d300d	0.0038633377
67	0x3c9358f8	0.01798676
68	0xbd06547e	-0.03279542
69	0xbcaee68d	-0.02135017
70	0x3ceb1d07	0.028700365
71	0xbbea3345	-0.007147225
72	0xbce2aaff	-0.027669428
73	0xbceee9e7	-0.029164268
74	0xbcefb8c9	-0.029262917
75	0xbc134b8f	-0.008990183
76	0x3cb73bd0	0.022367388
77	0x3c872efa	0.016501892
78	0x3c74dee5	0.01494572
79	0xbb4a9665	-0.0030912396
80	0x3ce5bfc4	0.028045543
81	0x3cc8e64d	0.024523878
82	0x3cd5d2df	0.026101528
83	0xbc9b0332	-0.018922422
84	0x3c93be4a	0.018035073
85	0xbc6e20a5	-0.01453415
86	0x3cddd03b	0.027076831
87	0xbcfd06be	-0.030887004
88	0xbc2c1612	-0.010503309
89	0xbd007b57	-0.031367626
90	0xbc81f2a7	-0.015862776
91	0xbabce934	-0.0014412762
92	0xbce3669d	-0.02775889
93	0x3a3c0e0a	0.0007173723
94	0x3cd3e746	0.025867116
95	0xbbb6ea6b	-0.005582144
96	0xbc8d9f68	-0.017287925
97	0xbbd3d871	-0.006465011
98	0xbd140d2f	-0.036145385
99	0xbd013efa	-0.0315542
100	0x3b98db6f	0.0046648304
101	0x3cec9c1f	0.028883038
102	0xbcc495ad	-0.023997152
103	0x3c87a908	0.016560093
104	0x3cb2da64	0.021832652
105	0xbc43e893	-0.0119573055
106	0x3c21b237	0.00986915
107	0xbb0780ca	-0.002067613
108	0x3c4db1c0	0.012554586
109	0xbcbb9fed	-0.022903407
110	0x3cbd17a6	0.023082566
111	0x3ceed3db	0.029153755
112	0xbb2714ef	-0.0025494655
113	0x3cd7f2ed	0.026360953
114	0x3c27aab6	0.010233572
115	0xbb141ef9	-0.002260147
116	0x3c126f87	0.008937723
117	0x3b24b8ab	0.0025134485
118	0x3c6f1094	0.014591355
119	0xbbbfd60e	-0.0058543747
120	0x3a5ee945	0.0008503388
121	0x3c23aac9	0.009989449
122	0x3ce82511	0.028337987
123	0x3b3680e1	0.0027847814
124	0xbc851c0e	-0.01624873
125	0xbc9f4bd1	-0.019445332
126	0xbd08128b	-0.03322081
127	0xbc6a6be2	-0.014307948
128	0x3c872ba9	0.016500311
129	0x3c8e4817	0.01736836
130	0x3bc5b663	0.006033705
131	0x3c2436d3	0.010022837
132	0xbccaf194	-0.024773397
133	0xbabe4c74	-0.0014518634
134	0xbcf2e4a3	-0.029650038
135	0x3c93a72f	0.018024055
136	0xbc5cc042	-0.013473572
137	0x3c9524af	0.018205969
138	0xbcaabd50	-0.020842224
139	0xbd02e72c	-0.031958744
140	0x3c771191	0.015079872
141	0xbbba0c34	-0.0056777243
142	0xba47e8a3	-0.0007625913
143	0xbbe5f6d1	-0.007017948
144	0xbd263ff2	-0.040588327
145	0xbcd15e4c	-0.02555766
146	0xbd045b62	-0.032313712
147	0xbd047a39	-0.032343123
148	0xbd0f26f7	-0.03494927
149	0xbcd8dd95	-0.026472846
150	0x3cc124f5	0.023577193
151	0xbce02b0c	-0.027364276
152	0x3c88cf9c	0.016700558
153	0xbcbd74fd	-0.023127073
154	0xbc8c1efc	-0.017104618
155	0xbb89930f	-0.004198439
156	0xbc9f608f	-0.019455222
157	0x3c87d4c3	0.016580945
158	0x3d00d289	0.031450782
159	0xbca5c93f	-0.020237563
160	0xbbbb1011	-0.0057087024
161	0x3c7cad74	0.015422214
162	0xbcb9c861	-0.022678556
163	0xbba14ecd	-0.004922724
164	0xbcd3428e	-0.025788572
165	0xbca2d344	-0.01987613
166	0xbc2cb2ef	-0.010540708
167	0x3ce804aa	0.028322536
168	0x3ce69110	0.028145343
169	0xbbaf8bcb	-0.005357241
170	0xbce681eb	-0.028138122
171	0x3c22a744	0.009927575
172	0x3c8a28b4	0.016865112
173	0xbcabf67b	-0.020991554
174	0xbc8695c1	-0.01642883
175	0xbc01762f	-0.007901712
176	0xbcc97425	-0.024591515
177	0xbb7e55b0	-0.0038808398
178	0x3c62f936	0.013853362
179	0x3c35a32f	0.011086269
180	0x3d050ba1	0.032481793
181	0xbcd8845a	-0.026430298
182	0xbc451e50	-0.012031153
183	0x3cd036c7	0.025416745
184	0x3cdb483d	0.026767844
185	0xbcbabbde	-0.02279466
186	0xbc985479	-0.018594967
187	0x3cebd229	0.028786736
188	0xbd03ef88	-0.032210857
189	0xbabf1710	-0.0014579017
190	0x3c713f8b	0.0147246225
191	0xba2e5138	-0.0006649676
192	0x3c17c683	0.0092636375
193	0xbc5b2917	-0.013376496
194	0x3b5e7f6c	0.003395046
195	0x3c5c5e65	0.01345024
196	0xba3c1d07	-0.0007175956
197	0xbce612e1	-0.028085174
198	0x3cffb424	0.031213827
199	0xbd15cf46	-0.036574624
200	0xbc98c933	-0.018650627
201	0x3b98e8ff	0.004666447
202	0x3c8a7a8b	0.016904136
203	0x3c0410ea	0.008060673
204	0x3cf5c11f	0.029999314
205	0xbaef4788	-0.0018255571
206	0xbd263436	-0.040577136
207	0x3cf7e649	0.030261176
208	0xbca2d4d3	-0.019876873
209	0x3c354b8a	0.011065373
210	0xbcf2ed84	-0.029654272
211	0x3cd7c417	0.02633862
212	0x3c14199a	0.009039307
213	0xbcdc1368	-0.026864722
214	0xbd121cb7	-0.035671916
215	0xbca92179	-0.020645844
216	0xbd00bf67	-0.031432535
217	0xbce82985	-0.02834011
218	0xbbe6c3a0	-0.0070423633
219	0x3c8221ab	0.015885195
220	0x3d0c7d52	0.034299202
221	0x3c878aed	0.016545737
222	0xbafc9161	-0.00192694
223	0x3a83e3a5	0.001006235
224	0xbd0def7e	-0.034652226
225	0xbb3c0225	-0.0028687802
226	0x3cf83058	0.03029649
227	0x3c835f0e	0.016036537
228	0xbbb9652d	-0.005657813
229	0x3cc92cad	0.024557436
230	0xbcc33a0d	-0.023831392
231	0xbb175863	-0.0023093454
232	0x3b033b5a	0.002002439
233	0xbcf933d9	-0.03042023
234	0xbd1f30b2	-0.0388648
235	0xbba5692a	-0.005047937
236	0x3bc5029b	0.0060122735
237	0xbd00f3c5	-0.031482477
238	0x3cba7354	0.02276007
239	0xbb9bde2e	-0.0047567105
240	0x3cbad9a1	0.022808852
241	0x3ceaa148	0.028641358
242	0x3cc2483d	0.023716087
243	0xbcd2d724	-0.025737353
244	0xbc3fec23	-0.011714014
245	0x3cc4257e	0.023943659
246	0xbc91fe2a	-0.01782139
247	0x3cabe429	0.020982819
248	0x3ce4ca94	0.027928628
249	0x3cce7dd3	0.025206482
250	0x3c26b0ad	0.010173959
251	0x3c7eddf7	0.01555585
252	0x3b47e5ac	0.0030501885
253	0xbd1243a4	-0.03570904
254	0x3afdf49d	0.0019375269
255	0x3c13d292	0.009022372

classifier.3.weight f4 [1, 256]
0	0x3c4da3f0	0.012551293
1	0xbd528473	-0.051395845
2	0xbd11a5e5	-0.0355586
3	0xbd5c2391	-0.053744856
4	0xbba51d1e	-0.0050388714
5	0x3c62cab8	0.013842277
6	0x3c979ba9	0.018506842
7	0x3d3be238	0.045870036
8	0xbd380cac	-0.04493396
9	0xbcff87d8	-0.031192705
10	0xbb1b7a8f	-0.0023724174
11	0x3d0260cb	0.03183059
12	0xbd2a1aa4	-0.041529313
13	0x3d2da31e	0.04239189
14	0x3c514239	0.012772136
15	0xbd430b50	-0.04761821
16	0x3d2e0857	0.042488422
17	0xbd20aae8	-0.03922549
18	0xbc8635ac	-0.016383015
19	0x3bc34d11	0.0059601148
20	0xbd007fe6	-0.031371973
21	0x3d056de4	0.032575503
22	0xbc0b4688	-0.008500703
23	0xbd0daf4f	-0.034591015
24	0x3d1361a5	0.035981793
25	0x3d500364	0.050784484
26	0x3d1014e5	0.035176177
27	0x3d2aa028	0.041656643
28	0x3b886c3b	0.0041632927
29	0xbd5cd032	-0.053909488
30	0x3a110457	0.0005531958
31	0xbcedf208	-0.029046074
32	0xbd588245	-0.05285861
33	0xbd5e737d	-0.054309357
34	0xbc9231ed	-0.017846072
35	0xbbf4b550	-0.007467903
36	0xbce2cd74	-0.027685858
37	0x3d3892a9	0.04506174
38	0xbbfbcdd8	-0.0076844506
39	0x3c4361da	0.011925185
40	0x3d2cefde	0.042220943
41	0xbd106e77	-0.035261597
42	0x3cd12edf	0.025535045
43	0x3cb30870	0.02185461
44	0xbd2a8100	-0.04162693
45	0xbca0b232	-0.01961622
46	0xbd546994	-0.0518585
47	0xbc5a50d5	-0.013324936
48	0x3c93cac4	0.018041022
49	0xbd65e6e0	-0.056128383
50	0x3d2a5562	0.041585334
51	0xbd0ded3a	-0.034650065
52	0xbcdd4cee	-0.027014222
53	0x3d51dc16	0.05123528
54	0xbcec820e	-0.028870609
55	0xbd6ae28a	-0.05734495
56	0x3d02e9c0	0.031961203
57	0x3d245c22	0.040126927
58	0xbd429b1a	-0.047511198
59	0x3d3f8466	0.046757124
60	0xbd2fa135	-0.04287835
61	0xbd00db2c	-0.03145902
62	0x3d8d3553	0.068949364
63	0x3d4c27f4	0.04984279
64	0x3d829bad	0.06377349
65	0xbc73ab1e	-0.0148723405
66	0xbca16bd9	-0.019704746
67	0xbd6d58db	-0.057946067
68	0x3d5562f0	0.052096307
69	0xbd186412	-0.03720481
70	0xbd14301c	-0.036178693
71	0x3c3f27b0	0.011667177
72	0x3cadcddc	0.021216325
73	0x3c9eec7c	0.019399874
74	0xbd503d90	-0.05083996
75	0xbbf28807	-0.0074014696
76	0xbc089210	-0.008335605
77	0xbd24e42d	-0.040256668
78	0x3cbba314	0.02290491
79	0x3d535d12	0.05160243
80	0xbc0e1f58	-0.008674465
81	0xbd17dc4c	-0.037075326
82	0x3d0af86a	0.033928312
83	0x3a98bd40	0.0011653081
84	0x3cf562c6	0.029954325
85	0x3d1db6eb	0.038504522
86	0xbd619e31	-0.055082504
87	0x3d767355	0.060168583
88	0xbad249f8	-0.0016043773
89	0xbd0ccab6	-0.034373008
90	0x3b8d9710	0.0043209866
91	0x3d09b9d4	0.033624485
92	0x3c7347e3	0.014848682
93	0x3c258a2b	0.010103743
94	0x3be0276a	0.006840636
95	0x3d3b30aa	0.045700707
96	0xbc3e3980	-0.011610389
97	0xbd5c75f8	-0.05382344
98	0x3cca9aa5	0.024731943
99	0xbd3c54b0	-0.0459792
100	0xbc6a76e7	-0.014310575
101	0x3d8c7979	0.068591066
102	0xbd6a3ae2	-0.05718506
103	0x3d5b1ec0	0.053496122
104	0x3cd98aba	0.026555408
105	0xbd1e69a2	-0.038674958
106	0xbcaaae0c	-0.020834945
107	0xbd17ac28	-0.037029415
108	0x3d74c2d0	0.0597561
109	0xbbdcbfff	-0.006736755
110	0x3c3d3a58	0.011549555
111	0xbc9d4efb	-0.0192027
112	0xbc6f89ae	-0.014620228
113	0x3d42ad50	0.047528565
114	0xbc612713	-0.013742226
115	0xbc6dbcd0	-0.014510348
116	0x3c6569c5	0.014002268
117	0xb9fecac5	-0.0004859773
118	0xbd115b65	-0.03548755
119	0x3d38ad58	0.04508719
120	0xbcabd315	-0.020974675
121	0x3d539c7e	0.051662914
122	0x3d1ad23a	0.037798144
123	0x3c4bf1b0	0.0124477595
124	0xbd09421f	-0.033510324
125	0x3d844f22	0.06460406
126	0x3a92ca55	0.0011199216
127	0x3d128e4a	0.03578023
128	0xbd370974	-0.04468675
129	0x3c285160	0.010273308
130	0xbd33e632	-0.043920703
131	0x3d4ff376	0.05076929
132	0xbd760b10	-0.060069144
133	0x3d2ad031	0.041702453
134	0xbd2bbb7c	-0.041926846
135	0xbd561940	-0.052270174
136	0xbd281d8c	-0.041043803
137	0xbd07e45e	-0.033176772
138	0xbb8b0ba8	-0.004243333
139	0x3d13aaa0	0.036051393
140	0xbd239733	-0.039939117
141	0x3d6a893a	0.057259776
142	0xbc3c6b39	-0.011500173
143	0xbce995e6	-0.02851386
144	0x3b48e101	0.003065169
145	0x3d1fc637	0.03900739
146	0xbd608cf2	-0.054821916
147	0x3cca5a9c	0.024701409
148	0x3c7b1338	0.015324406
149	0xbd66268c	-0.056189105
150	0xbca4defc	-0.020125858
151	0xbc9402ce	-0.018067744
152	0x3d3efd1a	0.046628095
153	0xbd8df6a2	-0.06931807
154	0xbd05aa8b	-0.032633346
155	0x3a570856	0.0008202841
156	0x3c8e1b79	0.017347084
157	0xbd64c5b4	-0.055852607
158	0x3c19c9e0	0.00938651
159	0x3d2dbd3d	0.0424168
160	0xbc92e3e1	-0.017930927
161	0x3d42d59d	0.047567
162	0xbbc211e0	-0.005922541
163	0x3d6d85be	0.057988875
164	0x3d91ae6d	0.07113347
165	0xbb07d3c5	-0.002072559
166	0xbd6222b6	-0.055208884
167	0x3d64ee74	0.05589147
168	0xbd55ea86	-0.052225612
169	0x3d09a086	0.033600353
170	0x3c29bd72	0.010360109
171	0xbc61ed98	-0.013789557
172	0x3d0434e0	0.032276988
173	0xbd15787a	-0.03649185
174	0xbc9ceb6c	-0.019155227
175	0xbc9e79b0	-0.019345134
176	0xbc532108	-0.012886293
177	0x3cd76840	0.026294827
178	0xbd01ff3f	-0.031737562
179	0xbb268720	-0.002541013
180	0xbba2a450	-0.004963435
181	0xbd42b3c9	-0.047534738
182	0xbce7e1d0	-0.028305918
183	0xbd12e3f1	-0.035861913
184	0xbd5a6c2c	-0.053325817
185	0x3d72d9bc	0.05928968
186	0xbd478cd4	-0.04871829
187	0x3cb130d7	0.021629734
188	0xba8bc240	-0.0010662749
189	0xbd29945e	-0.04140126
190	0xbc531712	-0.012883918
191	0xbcab5690	-0.0209153
192	0xbd5c0c9c	-0.053722963
193	0xbd3cef2a	-0.046126522
194	0xbd58f2bf	-0.052965876
195	0x3d0d5048	0.03450039
196	0xbcd82870	-0.02638647
197	0x3d167415	0.0367318
198	0x3d42268e	0.04740005
199	0xbc55248c	-0.013009202
200	0xbceca4f8	-0.028887257
201	0xbbb0ebaf	-0.0053991894
202	0x3d1c9f58	0.0382379
203	0x3d15c012	0.036560126
204	0xbce2eb38	-0.027700052
205	0xbd6ba416	-0.05752953
206	0x3d59288c	0.053017184
207	0xbd898aeb	-0.067159496
208	0x3d3df89b	0.046379667
209	0x3c65d3a8	0.014027514
210	0x3d6501d2	0.05590994
211	0xbc9c2114	-0.019058742
212	0xbc96d350	-0.018411309
213	0xbd7367d2	-0.059425183
214	0x3d66913d	0.056290854
215	0xbb06f417	-0.0020592266
216	0x3c1bac48	0.009501524
217	0xbc0de9d8	-0.00866171
218	0xbcbb3e73	-0.022856927
219	0x3cb2ad80	0.021811247
220	0x3d45156c	0.048116133
221	0x3d39f687	0.045401122
222	0x3a5e973a	0.00084911624
223	0xbd22b9a6	-0.03972783
224	0xbc5e50e8	-0.013569094
225	0x3c0f9030	0.008762404
226	0xbc930713	-0.01794771
227	0x3d0b974e	0.034079842
228	0xbb9ed9a8	-0.004847724
229	0x3ba1f830	0.0049429163
230	0x3b10ca08	0.0022093076
231	0x3d0d8093	0.034546446
232	0x3d5bd648	0.05367115
233	0xbb92c6ce	-0.004479266
234	0x3d467a88	0.0484567
235	0xbccf2ed4	-0.025290884
236	0x3d4b1f7c	0.049590573
237	0xbcb4ef4c	-0.022086762
238	0x3d05b686	0.03264477
239	0xbc248dc0	-0.010043561
240	0x3cbf1c24	0.023328848
241	0x3d45513d	0.048173178
242	0xbc507ab2	-0.012724565
243	0x3d7275a0	0.059194207
244	0x3bc548c9	0.0060206396
245	0xbd6e7628	-0.05821815
246	0xbc114510	-0.008866563
247	0xbcbdd6cc	-0.023173712
248	0xbbb334a3	-0.0054689213
249	0x3d5b7099	0.05357418
250	0x3d4c3902	0.049859054
251	0xbce03270	-0.0273678
252	0x3a90f909	0.0011060546
253	0x3d445842	0.04793573
254	0x3ad7d18e	0.001646565
255	0xbc8e888c	-0.017399095
